Models/audio_detector.onnx (onnx, 105675 bytes, 6 tensors)

head.3.bias f4 [2]
0	0xbb2e5581	-0.0026601257
1	0xbceb2293	-0.02870301

backbone.conv1.weight_bias f4 [64]
0	0x3e06425c	0.13111252
1	0xbeb6ecc0	-0.357275
2	0x4103d8ec	8.240459
3	0xbf97de88	-1.1864786
4	0xc1375e24	-11.460484
5	0xbfb80272	-1.4375746
6	0x40bc5064	5.8848133
7	0x3deea624	0.116527826
8	0xc0074834	-2.113782
9	0x3f87102e	1.0551813
10	0xbe88ce9c	-0.2672013
11	0xbfd14342	-1.634865
12	0x40b63811	5.694344
13	0x3f851db9	1.0399696
14	0xbf97367c	-1.1813502
15	0x3fa42d37	1.2826298
16	0xbf8c4f22	-1.096165
17	0x40c47055	6.1387124
18	0x40469289	3.1026938
19	0x3ee32718	0.44365764
20	0x40d8c8ee	6.7745275
21	0x3f3e28de	0.7428111
22	0x3f81a454	1.0128274
23	0xbfbe69b4	-1.4876008
24	0x405dbba4	3.4645777
25	0x3e7edc10	0.24888635
26	0x3fb7d590	1.4362049
27	0xbdaaa500	-0.083322525
28	0x403fa4c8	2.9944324
29	0x40814652	4.039834
30	0xbfd0a624	-1.6300702
31	0x3ee7192f	0.451364
32	0x3f0c1d23	0.5473196
33	0xc06bbca6	-3.6833892
34	0xbea8b8b8	-0.3295343
35	0x3ec41778	0.38299155
36	0xc08c1f74	-4.3788395
37	0x3ef25e78	0.473377
38	0xbe2c2488	-0.1681081
39	0xbea329d4	-0.3186785
40	0x3e369646	0.17830762
41	0xc135f408	-11.372078
42	0x3f06476e	0.52452743
43	0x407a4564	3.9104853
44	0x3e9484de	0.2900762
45	0xbc429940	-0.011877358
46	0x40c2f33e	6.0921926
47	0xbdc64f57	-0.096831016
48	0x3f016715	0.50547916
49	0x40a8b071	5.2715383
50	0x3f384a40	0.71988297
51	0xbd0ae730	-0.033911884
52	0xbe2f65d5	-0.1712869
53	0x3e837ad8	0.2567966
54	0xbf4fee90	-0.8122339
55	0x3edcbb6a	0.43111736
56	0x410fb0f2	8.9807
57	0xbe39ed14	-0.18156844
58	0xbf9dd14a	-1.2329495
59	0x3f1fd306	0.6243137
60	0xbe269e18	-0.16271245
61	0x41146936	9.275686
62	0x3ebf6214	0.37379515
63	0x3ed023a5	0.40652195

backbone.layer1.0.conv1.weight_bias f4 [64]
0	0x3fa2de81	1.2724153
1	0xbf944687	-1.1584023
2	0x3e719c0d	0.23594685
3	0x3f1fe45d	0.6245783
4	0x3f01758c	0.5056999
5	0x400556fb	2.0834339
6	0x3efb881a	0.49127275
7	0xbf21de54	-0.6322987
8	0xbf5e7f5c	-0.86913085
9	0xbf4ef110	-0.8083658
10	0x3f1bdd2c	0.60884356
11	0xbef9d63a	-0.48796254
12	0x40695513	3.6458175
13	0x3fe1a0c8	1.7627192
14	0xbf391f48	-0.72313356
15	0xbf98839e	-1.1915166
16	0x40201860	2.5014877
17	0xbfa22807	-1.2668465
18	0x3f6e8232	0.9316741
19	0x3f18b9da	0.59658587
20	0x3f71d53e	0.94466007
21	0xbe711a33	-0.2354515
22	0x3e99fa58	0.3007381
23	0xbee8e744	-0.45488942
24	0xbfc7b7bd	-1.5602947
25	0x3fc97421	1.5738565
26	0x3fab90fa	1.3403618
27	0x3fdd698b	1.7297834
28	0x40a6931f	5.205459
29	0xbf7273e1	-0.9470807
30	0x3f2eb79b	0.6824891
31	0x3fcccc08	1.5999765
32	0x3ec7f636	0.39055032
33	0x3f9392dd	1.1529194
34	0x3fc3c317	1.5293912
35	0x3fa21820	1.2663612
36	0xbe9462dc	-0.28981674
37	0x3e7ec500	0.24879837
38	0x3f2b468e	0.6690453
39	0xbe99a15a	-0.30005914
40	0x3ec1a758	0.37822986
41	0xbffa9115	-1.9575526
42	0xbe6c60bd	-0.23083778
43	0xbc6d1130	-0.01446943
44	0x3fd74216	1.6817043
45	0x3f4f8709	0.8106542
46	0xbf6ca0ad	-0.9243267
47	0x3fa7d7e2	1.3112757
48	0x3f3a1a65	0.72696525
49	0x3f86de93	1.0536674
50	0x3f90d869	1.1316043
51	0x3fad918e	1.3560045
52	0xbf519560	-0.81868553
53	0x40572cfa	3.3621202
54	0x3e97174e	0.29509968
55	0xc00fd722	-2.2475057
56	0xbe57eca8	-0.21086371
57	0x3f0dbc97	0.5536589
58	0x3f005bbe	0.5013999
59	0xbf193579	-0.5984722
60	0xbfbf6ab0	-1.4954433
61	0x3cb97ad8	0.022641584
62	0xbfd774dc	-1.6832538
63	0x3fa2c8e7	1.271756

backbone.layer1.0.conv2.weight_bias f4 [64]
0	0xbf2299a7	-0.63515705
1	0xc04a0c6d	-3.1570084
2	0xbeffad70	-0.4993701
3	0xbf41847c	-0.7559278
4	0xc04dd8cf	-3.216358
5	0xc031d730	-2.778759
6	0xbf24206e	-0.64111984
7	0x4019b41c	2.401618
8	0xc0fd9f5c	-7.925703
9	0x3f9629a4	1.1731458
10	0x40a0c27e	5.0237417
11	0x3f860b88	1.0472269
12	0x3fcd4a08	1.6038218
13	0x3f2d77a0	0.6776066
14	0xc081736a	-4.0453386
15	0x400c4eff	2.1923215
16	0xbfe2ed46	-1.772866
17	0xbd1bbf48	-0.038024217
18	0xbf26e5b4	-0.6519425
19	0xbfbdf576	-1.4840534
20	0x3f43ec9a	0.765329
21	0x4003fe10	2.0623817
22	0x401f513a	2.4893327
23	0xbf89feb6	-1.0780857
24	0xbfa32281	-1.2744905
25	0xbf9409d2	-1.1565497
26	0x3fc6233e	1.5479505
27	0xbf48f5e5	-0.78500205
28	0x3fa28f36	1.2699955
29	0x3eae7b0e	0.34078258
30	0xc03a6166	-2.9121947
31	0x3e77f5c8	0.24214852
32	0x3f508660	0.8145504
33	0x3fc7f99c	1.562305
34	0xbe1fb1dc	-0.15595192
35	0x4025a455	2.588155
36	0xbf8b0dbe	-1.0863569
37	0x3e2e5c18	0.17027318
38	0xbfbfaf83	-1.4975437
39	0x403dc671	2.965237
40	0x4067d599	3.622412
41	0xbe9a09fa	-0.30085737
42	0x40047454	2.0696
43	0xc0a0672a	-5.0125933
44	0x40988274	4.7659245
45	0x3b358980	0.0027700365
46	0x3faf52f0	1.3697186
47	0x3e2303b8	0.15919387
48	0x40109988	2.2593708
49	0x3f49edac	0.78878284
50	0xc080ab43	-4.020906
51	0x3fee561c	1.8620028
52	0x412bb7b4	10.732349
53	0xbd2f6e20	-0.042829633
54	0xc06c66ae	-3.693767
55	0xbf951992	-1.1648428
56	0xbfe7aabc	-1.8098979
57	0x3f5af555	0.85530597
58	0xbf974fcf	-1.1821231
59	0x40397ffe	2.898437
60	0x406a99d7	3.6656396
61	0x3f3a9a42	0.7289163
62	0x3f4e01f0	0.80471706
63	0x3fe10f02	1.7582705

backbone.layer1.1.conv1.weight_bias f4 [64]
0	0x3f407e7c	0.75193
1	0x3f605560	0.8763027
2	0x3fab93c3	1.3404468
3	0x3d37b85c	0.044853553
4	0xc02b0ebe	-2.6727748
5	0xbef7dd5f	-0.4841108
6	0x3ffb180e	1.9616716
7	0xbf4e6e1f	-0.8063678
8	0x3fd06cb5	1.6283175
9	0xbee28b29	-0.44246796
10	0x402ba489	2.6819174
11	0x3f0351de	0.51296794
12	0xbf77f7d8	-0.96862555
13	0x3f7bbd80	0.9833603
14	0xbe487850	-0.19577146
15	0x3f45dc41	0.77289206
16	0x3ff2a36a	1.895612
17	0x3f094b45	0.5363048
18	0x4026fc7c	2.6091604
19	0x3fb0bfea	1.3808568
20	0xbe098da3	-0.13432936
21	0x3f55d806	0.8353275
22	0x3fab37c4	1.3376393
23	0xbd4dde48	-0.050260812
24	0x400e4025	2.222665
25	0xbefea961	-0.497386
26	0xbe575a2f	-0.21030496
27	0x3fe36b86	1.7767189
28	0x3ff71dfa	1.9306023
29	0x3f99e80e	1.2023942
30	0x3d9ceba9	0.07662136
31	0xc028d638	-2.6380749
32	0x3f1d7e25	0.61520606
33	0xbdaeb110	-0.08529866
34	0xbff40f01	-1.9067079
35	0xbf0b05b5	-0.54305583
36	0xc005558b	-2.0833461
37	0xbe997ab6	-0.29976434
38	0xbf8cd78d	-1.1003281
39	0xbf0d812d	-0.5527523
40	0x3f46e440	0.7769203
41	0x3f80e0fb	1.0068659
42	0x3f07591f	0.52870363
43	0xbfe5781a	-1.7927277
44	0x3fe7b96a	1.8103459
45	0xbf9bbdb6	-1.216727
46	0x3fb6cc54	1.4281106
47	0x3dd3e26b	0.1034592
48	0xbdc62e9b	-0.09676858
49	0xbfac3ad5	-1.3455454
50	0xbef12b18	-0.4710319
51	0x4082cf78	4.087826
52	0x3fa846e0	1.3146629
53	0x3f1dbdd9	0.6161781
54	0x4054f035	3.327161
55	0xbe8e8fae	-0.27843994
56	0x3fc30a11	1.5237447
57	0x3f0b79ae	0.54482543
58	0xbf1bdb3c	-0.608814
59	0xbfbab1de	-1.4585531
60	0x3f44426e	0.76663864
61	0xbf91cdec	-1.1390967
62	0x405fdc9a	3.4978395
63	0x3e17d553	0.1482747

backbone.layer1.1.conv2.weight_bias f4 [64]
0	0x405a71d4	3.4131975
1	0x3dad8c30	0.08474004
2	0x3f32ae16	0.69796884
3	0xbe9572e8	-0.2918923
4	0x3f823ab2	1.0174162
5	0x3fb9f583	1.4528049
6	0x40a9a84e	5.301795
7	0xbf9b7ddb	-1.2147783
8	0xbf0b92f2	-0.54521096
9	0x3ee691d0	0.4503312
10	0x3c723400	0.014782906
11	0x3dec5900	0.11540413
12	0x4042e4e2	3.04522
13	0x3f688250	0.9082384
14	0x401f7b06	2.4918838
15	0xbecf8718	-0.40532756
16	0xbf94f476	-1.1637104
17	0xc0337292	-2.8038678
18	0x401f035c	2.48458
19	0x4057bd08	3.3709126
20	0xbf1b9b7c	-0.60784125
21	0x3f5715f0	0.8401785
22	0x4032fe8e	2.7967868
23	0x3f4fbca8	0.8114724
24	0x3facdd0c	1.3504958
25	0x40097f18	2.1483822
26	0x3f10f194	0.5661862
27	0xbf48765c	-0.783056
28	0x3fbd8730	1.4806881
29	0x3ef033f2	0.4691463
30	0x3f143965	0.5790008
31	0x3edfadf7	0.43687412
32	0xbf92c04c	-1.1464934
33	0x3e43553f	0.19075488
34	0xbe043c08	-0.12913525
35	0x3f4bcc96	0.7960905
36	0x3e137d00	0.14403152
37	0x3f3e374a	0.74303114
38	0x406872cd	3.632007
39	0x4047d838	3.122572
40	0xbe277b3c	-0.16355604
41	0x3e10513e	0.14093491
42	0x3f00637b	0.50151795
43	0xbe392e68	-0.18084109
44	0xbfca8492	-1.5821707
45	0x3f995afc	1.1980891
46	0x402b2d25	2.6746304
47	0xbf027e1f	-0.50973696
48	0x4035eb6f	2.8424947
49	0x3e84d30c	0.25942266
50	0x3fa22589	1.2667705
51	0x3f6d1282	0.92606366
52	0x400cca6d	2.199855
53	0x40695bd4	3.6462297
54	0xbf33b44b	-0.7019698
55	0x3f0bdfec	0.5463855
56	0xbf144919	-0.5792404
57	0x3f6128b2	0.8795272
58	0x3f730aea	0.9493853
59	0xbfb28a1f	-1.3948401
60	0xbf86ce8b	-1.0531782
61	0x3f82f775	1.0231768
62	0xbef2cf07	-0.47423574
63	0x40373bba	2.8630204
