Models/forensic_classifier.onnx (onnx, 551949 bytes, 25 tensors)

backbone.blocks.0.0.se.conv_reduce.bias f4 [8]
-1.2249582 -0.12141645 -1.2381314 -1.0973226 -1.7486156 -1.7947811 -1.5482222 -0.72037995
00000000: 6ecb 9cbf 30a9 f8bd 177b 9ebf 1175 8cbf
00000010: a3d2 dfbf 63bb e5bf 252c c6bf d26a 38bf

backbone.blocks.0.0.se.conv_expand.bias f4 [32]
1.8343965 4.014367 -0.4896974 -0.14168653 3.499797 1.031211 0.7555172 -0.77154493
2.7694643 1.1145312 0.28774983 -0.13482814 0.55268514 -0.5109101 2.5408533 0.6892783
0.43369976 0.3673736 -0.76085585 -2.0680952 1.7077391 0.89099926 -1.3345051 2.5838954
-1.4744997 -0.9221408 2.303821 3.855683 0.026608365 -1.1888733 4.274603 -2.0316424
00000000: 81cd ea3f b275 8040 9eb9 fabe 4616 11be
00000010: adfc 5f40 b9fe 833f 9369 413f f883 45bf
00000020: e73e 3140 f5a8 8e3f f253 933e 6310 0abe
00000030: c67c 0d3f 01cb 02bf 579d 2240 8b74 303f
00000040: e50d de3e 6418 bc3e 73c7 42bf ac5b 04c0
00000050: 3297 da3f 8718 643f 10d1 aabf 8b5e 2540
00000060: 68bc bcbf 6b11 6cbf ce71 1340 83c3 7640
00000070: c9f9 d93c 002d 98bf 8cc9 8840 6e06 02c0

backbone.blocks.1.0.se.conv_reduce.bias f4 [4]
0.47728655 1.9207046 -0.054274324 -0.15442017
00000000: e75e f43e a6d9 f53f c14e 5ebd 5220 1ebe

backbone.blocks.1.1.se.conv_reduce.bias f4 [6]
-0.4140675 -0.72854424 2.371374 1.5228235 2.6217904 1.2649935
00000000: a800 d4be e081 3abf 97c4 1740 e1eb c23f
00000010: 6acb 2740 4feb a13f

backbone.blocks.2.0.se.conv_reduce.bias f4 [6]
1.5302883 0.71536726 0.29768705 0.21153462 0.90586674 1.1086668
00000000: 7de0 c33f 4f22 373f 706a 983e 889c 583e
00000010: e2e6 673f cbe8 8d3f

backbone.blocks.2.1.se.conv_reduce.bias f4 [10]
1.0833623 1.0184829 2.4831395 -0.095012 1.686588 1.4182446 0.9621978 1.0604335
1.1260484 1.0563241
00000000: 9eab 8a3f a65d 823f c2eb 1e40 a795 c2bd
00000010: 1ee2 d73f 0a89 b53f 9852 763f 49bc 873f
00000020: 5b22 903f a135 873f

backbone.blocks.3.0.se.conv_reduce.bias f4 [10]
-0.27310866 -0.34285793 -0.2507462 -0.4203678 0.20562506 0.3480652 -0.22324717 0.33295816
0.20598507 -0.025736148
00000000: e6d4 8bbe 138b afbe ce61 80be 733a d7be
00000010: 608f 523e 9a35 b23e e89a 64be 7e79 aa3e
00000020: c0ed 523e 9dd4 d2bc

backbone.blocks.3.1.se.conv_reduce.bias f4 [20]
0.834002 1.7652485 0.8316757 0.42766055 1.9852434 0.88473445 -0.12083383 0.54549974
0.6356491 0.6229586 1.0844411 -0.26087135 1.333118 1.5383016 0.699944 1.4477509
1.7186782 1.2214653 0.6528665 1.0281887
00000000: 2881 553f aaf3 e13f b3e8 543f 53f6 da3e
00000010: 751c fe3f f57d 623f ba77 f7bd dfa5 0b3f
00000020: e6b9 223f 377a 1f3f f7ce 8a3f ee90 85be
00000030: 9ca3 aa3f 11e7 c43f 882f 333f e74f b93f
00000040: a6fd db3f fa58 9c3f 4222 273f b09b 833f

backbone.blocks.3.2.se.conv_reduce.bias f4 [20]
2.052872 1.1698139 0.46779874 1.2184128 0.023092696 0.79492474 0.8771549 1.1126926
0.7189722 0.34517115 0.97769225 1.3747269 1.4543751 1.0571028 0.8644624 0.5606921
0.887204 0.85475063 0.7271115 0.4595141
00000000: 4162 0340 76bc 953f 5183 ef3e f3f4 9b3f
00000010: e52c bd3c 3080 4b3f 398d 603f b66c 8e3f
00000020: 900e 383f 46ba b03e 0a4a 7a3f 0df7 af3f
00000030: f728 ba3f 254f 873f 684d 5d3f 8489 0f3f
00000040: cd1f 633f f0d0 5a3f fb23 3a3f 6f45 eb3e

backbone.blocks.4.0.se.conv_reduce.bias f4 [20]
0.7756505 0.5273194 1.886183 1.2039611 1.4578449 0.79657996 1.5710905 0.7145395
1.4072281 0.11083901 1.79356 -0.26483205 -1.1164725 0.9102075 2.037381 1.7173237
0.667732 0.8562297 1.1696104 1.4462149
00000000: 0891 463f 67fe 063f 726e f13f 661b 9a3f
00000010: a99a ba3f aaec 4b3f 7e19 c93f 10ec 363f
00000020: 0d20 b43f 90ff e23d 6093 e53f 1198 87be
00000030: 92e8 8ebf 5c03 693f 7364 0240 43d1 db3f
00000040: 7cf0 2a3f df31 5b3f cbb5 953f 921d b93f

backbone.blocks.4.1.se.conv_reduce.bias f4 [28]
0.7856956 0.680276 0.982627 1.1771393 1.588298 1.0387868 0.9952822 0.958608
0.22683755 1.1884685 0.24807873 0.60887295 0.8375689 0.80408186 1.2001984 0.5358241
0.49250844 1.5169374 0.8574512 1.1425242 0.68849343 1.2346612 1.2836981 0.28856713
0.96156144 1.1663054 0.67056185 1.1965628
00000000: 5923 493f 9126 2e3f 718d 7b3f 80ac 963f
00000010: 594d cb3f f7f6 843f d0ca 7e3f 5567 753f
00000020: 1a48 683e bc1f 983f 5a08 7e3e 19df 1b3f
00000030: ea6a 563f 4fd8 4d3f 1aa0 993f c52b 093f
00000040: 112a fc3e 012b c23f ec81 5b3f 3c3e 923f
00000050: 1b41 303f 6109 9e3f 3850 a43f 12bf 933e
00000060: e428 763f 7f49 953f f1a9 2b3f f828 993f

backbone.blocks.4.2.se.conv_reduce.bias f4 [28]
0.5786357 0.87231934 0.45998308 0.7291478 0.5332899 0.53783953 0.81357175 0.46178705
0.41007146 0.8036521 0.74023783 0.89205444 0.42414066 0.66505986 0.832649 0.60434604
0.75980127 0.49528345 1.0310906 0.7096079 1.6172808 0.7824083 1.203935 0.47059867
0.21018302 1.1638567 0.7227548 0.2644293
00000000: 7821 143f 5250 5f3f e782 eb3e 6ea9 3a3f
00000010: b085 083f daaf 093f 3d46 503f 5a6f ec3e
00000020: e3f4 d13e 25bc 4d3f 3a80 3d3f ae5d 643f
00000030: f728 d93e 5d41 2a3f 7c28 553f 6cb6 1a3f
00000040: 5682 423f cb95 fd3e c7fa 833f dda8 353f
00000050: 0f03 cf3f e94b 483f 8b1a 9a3f 4ff2 f03e
00000060: 383a 573e 42f9 943f 7506 393f 4763 873e

backbone.blocks.5.0.se.conv_reduce.bias f4 [28]
0.6381683 1.5956911 0.41560003 2.265816 0.7885905 0.9466102 0.65772974 0.14369377
1.2895454 0.75339514 1.1874213 0.6469 2.2348487 1.8799345 1.991567 -0.029920021
1.2207639 0.3774071 0.710583 0.12298826 0.22825085 0.7429719 0.72710043 2.005875
0.05052275 -0.31984895 0.5387053 -1.670284
00000000: ff5e 233f 9b3f cc3f 87c9 d43e 2103 1140
00000010: 11e1 493f 0c55 723f fa60 283f 7624 133e
00000020: d30f a53f 81de 403f 6cfd 973f 3d9b 253f
00000030: c307 0f40 b2a1 f03f abeb fe3f d51a f5bc
00000040: fe41 9c3f 813b c13e c4e8 353f 45e1 fb3d
00000050: 97ba 693e 6833 3e3f 4123 3a3f 4260 0040
00000060: f1f0 4e3d 3ec3 a3be 97e8 093f decb d5bf

backbone.blocks.5.1.se.conv_reduce.bias f4 [48]
0.58334106 0.22849783 -0.06388645 0.09637323 0.13255179 -0.19842091 -0.10285711 -0.13702022
0.6872783 -0.5911699 -0.021500945 -0.3728305 0.7872922 -0.51610523 0.13582632 -0.10276924
0.6975514 0.18019429 0.3017909 0.15775852 0.10928188 0.5571273 -0.08538544 -0.059960347
0.51095617 0.55581194 -0.1462314 -0.0026230342 1.0994145 0.0045640897 0.1508479 0.478663
0.5783021 0.19964944 0.6610329 0.37858903 0.2070526 -0.032113403 0.16221996 0.5062858
1.0964894 0.27367914 0.14543778 -0.20237544 0.033329796 0.51190615 -0.38771844 0.48633298
00000000: d755 153f 56fb 693e e6d6 82bd 545f c53d
00000010: a8bb 073e da2e 4bbe c0a6 d2bd 074f 0cbe
00000020: 78f1 2f3f e956 17bf c022 b0bc a4e3 bebe
00000030: fb8b 493f 791f 04bf 0e16 0b3e ae78 d2bd
00000040: bb92 323f da84 383e 5684 9a3e 738b 213e
00000050: 2ecf df3d e59f 0e3f 90de aebd fb98 75bd
00000060: 06ce 023f b149 0e3f afbd 15be 36e7 2bbb
00000070: 9db9 8c3f 5c8e 953b df77 1a3e 5113 f53e
00000080: 9b0b 143f e770 4c3e 7439 293f 6cd6 c13e
00000090: 9905 543e 5889 03bd fd1c 263e f29b 013f
000000a0: c459 8c3f ac1f 8c3e a4ed 143e 823b 4fbe
000000b0: d384 083d 480c 033f 0883 c6be a300 f93e

backbone.blocks.5.2.se.conv_reduce.bias f4 [48]
-0.7049639 1.7194669 0.4387566 0.17458381 -0.25247806 0.15701734 0.48562664 -0.03615223
0.15071994 0.35287493 0.45289665 0.3208649 0.9478519 -0.45565265 0.23683022 0.8249726
0.8873765 -0.40960607 0.6426204 -0.008004028 0.43660086 0.37486082 0.14934047 0.9397772
0.23290871 -0.14597622 0.36047897 0.8690317 0.58658874 -0.491113 0.78133744 0.33832568
0.55425125 0.6878669 0.43641675 0.22956957 0.13645233 0.28046632 0.58461124 -0.20759374
0.70523304 -0.07819905 1.0200795 0.31564498 0.4721687 -0.26551205 0.2291854 0.7997012
00000000: 8478 34bf 7e17 dc3f b4a4 e03e 19c6 323e
00000010: ce44 81be 27c9 203e 0ea4 f83e 5c14 14bd
00000020: 5456 1a3e 06ac b43e 12e2 e73e 6748 a43e
00000030: 6ca6 723f 4e4b e9be 9f83 723e 6831 533f
00000040: 1b2b 633f e3b7 d1be c582 243f 5423 03bc
00000050: 268a df3e c2ed bf3e b5ec 183e 3d95 703f
00000060: 9f7f 6e3e ca7a 15be b390 b83e dd78 5e3f
00000070: ae2a 163f 2a73 fbbe bb05 483f 0639 ad3e
00000080: 69e3 0d3f 0c18 303f 0472 df3e 4914 6b3e
00000090: 29ba 0b3e 4899 8f3e 15a9 153f 7493 54be
000000a0: 278a 343f d326 a0bd f791 823f 389c a13e
000000b0: 19c0 f13e 32f1 87be 94af 6a3e 38b9 4c3f

backbone.blocks.5.3.se.conv_reduce.bias f4 [48]
1.8722807 0.0338124 0.17403103 -0.12937336 0.0021417649 -0.27696192 0.7947695 0.20255484
1.3578656 0.42767558 -0.33491305 -0.005151497 1.5952095 -0.4450143 3.7823105e-05 2.1686685
0.24691653 0.21640116 0.9117295 1.1140884 -0.052820966 0.25615394 1.606473 0.089622326
0.50605834 1.1839135 0.050315436 -0.43652543 -0.18189192 0.12141613 0.26383182 0.5417531
0.1637073 0.5014379 0.08387101 0.23710781 1.544335 0.28217754 0.18418157 -0.18386291
0.63728446 0.29053217 0.13250501 -0.059113707 0.22848676 0.16609098 -0.018475356 -0.16228801
00000000: e5a6 ef3f df7e 0a3d 3135 323e 737a 04be
00000010: da5c 0c3b f4cd 8dbe 0476 4b3f 896a 4f3e
00000020: 8ace ad3f 4bf8 da3e b979 abbe e4cd a8bb
00000030: d32f cc3f ead8 e3be 40a4 1e38 77cb 0a40
00000040: b0d7 7c3e 4498 5d3e 1b67 693f 739a 8e3f
00000050: cc5a 58bd 9c26 833e e8a0 cd3f e98b b73d
00000060: 0a8d 013f 7a8a 973f 8f17 4e3d 4380 dfbe
00000070: e041 3abe 05a9 f83d f714 873e 55b0 0a3f
00000080: e3a2 273e 3c5e 003f 90c4 ab3d 64cc 723e
00000090: c5ac c53f 9379 903e 189a 3c3e 8f46 3cbe
000000a0: 1325 233f a2c0 943e 65af 073e 3721 72bd
000000b0: 6ff8 693e c113 2a3e a159 97bc d42e 26be

backbone.blocks.6.0.se.conv_reduce.bias f4 [48]
-0.36023706 -1.2122703 -0.82249093 -0.7373877 -1.019857 -1.6872056 -0.6924209 -1.1520029
-2.1476946 -1.1941264 -1.0998565 -0.3420003 -0.8652735 -0.6591971 -0.66795003 -0.747305
-0.04527199 2.5605278 -1.521938 -0.64575946 -0.45300764 -0.044591505 -1.0808127 -0.7949888
-0.30597398 -0.9418586 -2.252097 -0.98793215 -0.69353944 -0.38844758 -0.89907986 -0.39974624
-0.30231622 -2.15873 -1.4180113 -1.1072108 -1.2542524 -0.7284351 -0.996057 -0.7667708
-0.46172285 -0.50547874 0.7644235 -0.12696797 -1.1802882 -0.46180218 -1.6058085 -0.9205163
00000000: fe70 b8be ac2b 9bbf c48e 52bf 71c5 3cbf
00000010: ad8a 82bf 5af6 d7bf 7f42 31bf d574 93bf
00000020: d473 09c0 22d9 98bf 19c8 8cbf aa1a afbe
00000030: 9082 5dbf 24c1 28bf c6fe 2abf 614f 3fbf
00000040: 1f6f 39bd b0df 2340 ddce c2bf 7e50 25bf
00000050: 9ef0 e7be 95a5 36bd 1258 8abf 6384 4bbf
00000060: 9fa8 9cbe a51d 71bf 5b22 10c0 1fe9 7cbf
00000070: cd8b 31bf 9ae2 c6be 192a 66bf 8aab ccbe
00000080: 31c9 9abe a228 0ac0 6581 b5bf 15b9 8dbf
00000090: 588b a0bf b97a 3abf 97fd 7ebf 174b 44bf
000000a0: f066 ecbe 0e67 01bf 42b1 433f e403 02be
000000b0: af13 97bf 5671 ecbe 228b cdbf f5a6 6bbf

classifier.8.bias f4 [2]
0.043809947 -0.027982505
00000000: 0f72 333d 913b e5bc

backbone.conv_stem.weight_bias f4 [32]
2.282032 2.1978889 3.0213876 1.4919167 2.3408105 1.9741626 -12.42552 10.386246
7.850376 -2.8877363 -11.666452 2.3849173 0.06171538 -2.4561505 2.610992 6.826181
4.3791313 -0.826992 1.0351752 2.3633218 7.728228 -4.392408 -2.6587706 2.3309264
-3.7101998 2.5412607 1.2202575 2.2139144 0.42923376 10.9272 0.97995126 -0.10742469
00000000: d00c 1240 36aa 0c40 6a5e 4140 20f7 be3f
00000010: d7cf 1540 5cb1 fc3f eece 46c1 102e 2641
00000020: 4836 fb40 acd0 38c0 caa9 3ac1 7ca2 1840
00000030: 44c9 7c3d 9231 1dc0 7e1a 2740 1370 da40
00000040: d821 8c40 bfb5 53bf 9f80 843f aa40 1740
00000050: a54d f740 9b8e 8cc0 4c29 2ac0 e62d 1540
00000060: ea73 6dc0 04a4 2240 6631 9c3f c6b0 0d40
00000070: 87c4 db3e d0d5 2e41 16de 7a3f 7a01 dcbd

backbone.blocks.0.0.conv_dw.weight_bias f4 [32]
0.704992 0.73059547 -4.000954 2.642404 8.609491 10.197335 -1.6630621 1.5629951
2.0960665 -0.06696504 -1.4940267 1.5510035 7.0475545 -0.7553309 5.7516894 2.3942344
4.742691 4.3977613 3.2505412 4.281827 2.5903928 0.17500079 0.16658553 1.4035456
0.26636162 3.771994 10.065428 2.7579815 10.080823 2.2443604 3.8147333 1.299168
00000000: 5b7a 343f 4e08 3b3f d107 80c0 261d 2940
00000010: 7ac0 0941 4928 2341 38df d4bf 3910 c83f
00000020: f425 0640 f824 89bd 443c bfbf 4887 c63f
00000030: 9185 e140 5e5d 41bf d70d b840 233b 1940
00000040: 20c4 9740 76ba 8c40 de08 5040 ba04 8940
00000050: ffc8 2540 6833 333e 6695 2a3e 62a7 b33f
00000060: 8d60 883e 5a68 7140 fe0b 2141 c582 3040
00000070: 0d4b 2141 9aa3 0f40 9724 7440 234b a63f

backbone.blocks.0.0.conv_pw.weight_bias f4 [16]
-8.604198 4.2557635 -43.21747 2.9336157 -0.3446962 -29.786932 -27.521666 9.935394
5.961779 -3.105559 44.380215 3.4323988 20.775246 -17.410286 -2.9429016 -39.587917
00000000: ccaa 09c1 372f 8840 b0de 2cc2 5cc0 3b40
00000010: 057c b0be a34b eec1 5f2c dcc1 60f7 1e41
00000020: e5c6 be40 7bc1 46c0 5785 3142 6cac 5b40
00000030: b433 a641 4448 8bc1 8058 3cc0 075a 1ec2

backbone.blocks.1.0.conv_pwl.weight_bias f4 [24]
10.264414 -16.49961 2.74708 11.471494 -1.833129 -20.608913 -12.891555 4.8331847
9.34429 3.8762882 7.1842833 -2.627189 5.0255322 -10.436269 0.59192514 -1.7514696
-7.8626013 4.2015624 6.3234916 11.51553 1.4582253 9.971628 1.9264452 6.4787135
00000000: 0a3b 2441 34ff 83c1 29d0 2f40 3d8b 3741
00000010: f9a3 eabf 0edf a4c1 cf43 4ec1 73a9 9a40
00000020: 3682 1541 1b15 7840 a6e5 e540 dd23 28c0
00000030: 29d1 a040 f5fa 26c1 6888 173f 2830 e0bf
00000040: 6e9a fbc0 3373 8640 0b5a ca40 9c3f 3841
00000050: 20a7 ba3f ca8b 1f41 c295 f63f 9f51 cf40

backbone.blocks.1.1.conv_pwl.weight_bias f4 [24]
6.4474 8.099414 0.45430213 -2.0429978 -1.1277558 -17.965714 -6.9675565 7.168862
1.2726437 -5.8195276 0.85824597 9.220121 8.074961 -5.7129235 4.1875324 -0.08634938
3.639905 -1.6487408 6.269614 -1.1560037 -10.755163 5.838273 2.3497825 0.7426025
00000000: 1a51 ce40 3397 0141 4a9a e83e 7ac0 02c0
00000010: 4d5a 90bf c8b9 8fc1 39f6 dec0 5167 e540
00000020: fde5 a23f 9239 bac0 02b6 5b3f 9e85 1341
00000030: 0a33 0141 45d0 b6c0 4400 8640 f2d7 b0bd
00000040: 34f4 6840 f009 d3bf aea0 c840 eef7 93bf
00000050: 2615 2cc1 22d3 ba40 d662 1640 331b 3e3f

backbone.blocks.2.0.conv_pwl.weight_bias f4 [40]
4.617299 -27.016346 4.080739 4.716731 -4.321341 5.7862625 -3.6140485 3.1117818
2.7030783 -17.837397 -5.2828727 13.045214 -9.979302 -10.265764 -15.884138 -12.908983
-3.2734692 11.122218 10.034386 3.7344582 16.107506 5.5394216 5.5692816 -3.5741622
2.8124309 -9.842674 -6.512331 4.6050115 -1.1752465 6.6107025 -1.045668 11.117145
1.7698683 0.21185008 23.6089 -4.017357 -11.197941 6.741744 -5.205303 0.65424466
00000000: eac0 9340 7a21 d8c1 6a95 8240 76ef 9640
00000010: 6d48 8ac0 1029 b940 924c 67c0 6f27 4740
00000020: 3cff 2c40 fdb2 8ec1 4b0d a9c0 32b9 5041
00000030: 39ab 1fc1 9240 24c1 6e25 7ec1 328b 4ec1
00000040: 8580 51c0 9bf4 3141 d88c 2041 5d01 6f40
00000050: 2cdc 8041 f142 b140 8e37 b240 13bf 64c0
00000060: defe 3340 987b 1dc1 0465 d0c0 415c 9340
00000070: 7a6e 96bf e08a d340 73d8 85bf d3df 3141
00000080: 0b8b e23f 3aef 583e 07df bc41 308e 80c0
00000090: c42a 33c1 5ebc d740 d891 a6c0 947c 273f

backbone.blocks.2.1.conv_pwl.weight_bias f4 [40]
2.8518915 0.31440276 -0.6415837 -1.0556052 -1.7488775 2.9452815 -1.112329 0.15498292
-1.8068175 -0.4714632 -5.369883 0.4789012 1.3671123 -1.8004559 0.022050321 0.24747688
-0.017334104 -1.4789605 0.452816 -1.2667274 0.70922965 0.032945335 0.74202406 1.7718538
-0.11388904 1.3866168 -1.9670725 1.4086409 0.4434271 4.2224836 0.30802268 1.888407
-0.68548816 -0.6396129 -2.578063 1.6494889 -1.5477206 0.80682 -0.49554703 -0.82311594
00000000: 6485 3640 66f9 a03e d43e 24bf 121e 87bf
00000010: 38db dfbf 7e7f 3c40 cc60 8ebf d8b3 1e3e
00000020: cc45 e7bf a063 f1be 15d6 abc0 8a32 f53e
00000030: 89fd ae3f 5775 e6bf e0a2 b43c 946a 7d3e
00000040: 4000 8ebc 944e bdbf 80d7 e73e 2024 a2bf
00000050: 1390 353f b0f1 063d 4af5 3d3f 1bcc e23f
00000060: a83e e9bd a97c b13f 08c9 fbbf 584e b43f
00000070: e008 e33e 961e 8740 26b5 9d3e 52b7 f13f
00000080: 277c 2fbf acbd 23bf fcfe 24c0 7422 d33f
00000090: b51b c6bf c18b 4e3f 57b8 fdbe bab7 52bf
