Models/temporal_deepfake_detector.onnx (onnx, 17830 bytes, 3 tensors)

features.0.bias f4 [32]
00000000: 6a6a 523e 6e55 d03f f12f 603f 7d89 9a3f
00000010: d5eb 6ebf 8d67 4cbf 5aed fc3e cde8 e5bf
00000020: 9692 d03f d14c b8bf 31bb c63f a0fe 04bf
00000030: 3434 803f b50d 0a3f aa9e d9be 658b cabf
00000040: bc1a 9e3f 338c b6bf 1502 fabe e168 483f
00000050: 3472 d7bf f6a6 b3bf 307b c13f a0e4 32be
00000060: 92d2 cabf 2cde bd3f a8b2 ca3f c344 023f
00000070: f477 b8bf 94e9 c1bf bfb1 59bf b0cc dd3f
0.20548406 1.6276071 0.8757315 1.2073208 -0.933286 -0.79845506 0.49399835 -1.796167
1.6294734 -1.4398443 1.5525876 -0.51951027 1.0015931 0.53927165 -0.42503864 -1.582379
1.2351909 -1.4261535 -0.48829713 0.7828503 -1.6831727 -1.4035327 1.5115719 -0.17470026
-1.5845511 1.4833426 1.5835772 0.5088617 -1.4411607 -1.5149407 -0.85036844 1.7328091

features.4.bias f4 [64]
00000000: b331 4f3e d131 79be ad65 2b3f 9ac9 bf3f
00000010: 7fd4 1bbf 5769 83bf a0e7 783e 1993 cbbf
00000020: e76f 493e becc 23be b691 0b3f fbc9 9fbe
00000030: b03e da3e 7b7a 1f3f 9e26 923f 1d5e 143f
00000040: 5392 183d 6e60 5abe 1663 eb3e 191c 26be
00000050: cc83 b03f d738 2abe 2247 b3be da61 e2bd
00000060: dd56 e73d 3e5f 473f 6569 713f dd74 b63f
00000070: 9a4c 27bf 8de7 dbbd 5d45 0c3f 6705 403f
00000080: 5e7a 693f 6f7e c43f 7c47 a03e cdb9 87bf
00000090: 2bc7 0cbf 0479 84bf 1be6 5cbf 8ee6 81be
000000a0: 986e da3f 300f 60be 9c1e f03d fde8 4a3f
000000b0: 7f8d 0ebf 12be 983d e452 f53e 386a 9fbf
000000c0: 3dd4 75bf aac1 b2be 9c41 fe3e eb2e 733f
000000d0: 108c 82be be2d 903f 45b8 f03e 3364 303e
000000e0: e06b 1d3f 7eda fa3d 3b67 533f ffa4 ac3f
000000f0: d2bc 95bf f520 cbbd d831 633f 7a7b f83e
0.20233802 -0.2433541 0.6695202 1.4983399 -0.6087112 -1.0266522 0.24307108 -1.5904266
0.19671594 -0.15996072 0.5451921 -0.31208786 0.42625952 0.62296265 1.1418035 0.57956105
0.03724892 -0.21325848 0.45974034 -0.16221656 1.3790221 -0.16623245 -0.35015208 -0.1105382
0.11295865 0.77879703 0.94301444 1.4254414 -0.6535126 -0.10737524 0.5479334 0.75008243
0.9120234 1.5351084 0.31304538 -1.0603577 -0.54991406 -1.0349431 -0.86288613 -0.25371212
1.7065 -0.21880794 0.11724588 0.7926176 -0.55684656 0.07458128 0.47914803 -1.245429
-0.96026975 -0.3491338 0.4965943 0.94993466 -0.25497484 1.126396 0.47015586 0.17225723
0.6149273 0.12248705 0.8257939 1.3487853 -1.1698248 -0.099183954 0.8874793 0.48531705

classifier.2.bias f4 [2]
00000000: fbf7 6b3d 479c f23b
0.05760954 0.0074038836
