Models/xception_deepfake_detector.onnx (onnx, 285037 bytes, 3 tensors)

classifier.5.bias f4 [2]
0.041252412 0.0156208705
00000000: 4af8 283d aeee 7f3c

backbone.conv1.weight_bias f4 [32]
1.626147 -0.9090327 -0.36021876 -1.2089915 1.6525667 1.4851598 0.27820086 -0.7788141
-1.4574757 -0.46906388 2.965697 3.757932 2.1594248 2.4010496 -1.4207615 -0.22476846
-1.3775415 2.9154656 0.9449008 -0.30623066 -1.1871209 -0.82115525 -1.5394694 3.3889446
1.0273751 -0.9608374 -1.0232441 -1.4453734 -2.1733735 2.774534 1.9883528 2.0487182
00000000: 9625 d03f 5eb6 68bf 986e b8be 3cc0 9abf
00000010: 4e87 d33f b719 be3f 5870 8e3e 5c60 47bf
00000020: 908e babf 2429 f0be fbcd 3d40 f581 7040
00000030: 0434 0a40 ccaa 1940 83db b5bf b429 66be
00000040: 4853 b0bf fd96 3a40 05e5 713f 44ca 9cbe
00000050: 94f3 97bf 3b37 52bf 550d c5bf 78e4 5840
00000060: 0781 833f 71f9 75bf aaf9 82bf ff01 b9bf
00000070: 8d18 0bc0 f791 3140 5882 fe3f 331e 0340

backbone.conv2.weight_bias f4 [64]
0.7103816 0.35738558 0.46164632 0.6245307 0.059851438 0.67028224 2.8152826 -1.2518055
-4.3630586 1.488667 0.5378383 -1.2459055 2.0357985 -0.51517856 1.3146935 0.8343871
0.80362785 0.9112319 8.392034 1.3563588 3.1688876 0.93354654 -0.28751287 -1.2768372
-1.6120541 -0.18299216 2.7970319 -2.2020104 0.04427606 4.41795 4.0138583 -0.1573112
1.9003122 3.4976988 1.5180801 -2.8308265 1.2421278 -2.868551 2.2938914 -0.29029673
2.6642902 -0.57045346 -1.1604062 -1.5412202 0.3942884 0.072717205 1.2830285 -0.24667719
-1.0253197 2.8111944 1.0089736 -1.4417428 -0.04530394 1.5532894 -0.58530354 -0.9650141
-1.0119995 -0.50411725 1.9478813 -0.07666713 2.8018787 -0.082457185 -0.45973453 -0.91632557
00000000: 92db 353f 3efb b63e e85c ec3e 3ee1 1f3f
00000010: c826 753d 9e97 2b3f 972d 3440 2a3b a0bf
00000020: 2d9e 8bc0 a48c be3f c5af 093f d579 9fbf
00000030: 864a 0240 bee2 03bf e047 a83f 659a 553f
00000040: 8eba 4d3f 7e46 693f c545 0641 2a9d ad3f
00000050: 0ecf 4a40 e8fc 6e3f e334 93be 676f a3bf
00000060: ca57 cebf 4c62 3bbe 9202 3340 bded 0cc0
00000070: d05a 353d d95f 8d40 8771 8040 3016 21be
00000080: 6e3d f33f 4cda 5f40 7350 c23f 432c 35c0
00000090: 0bfe 9e3f 5796 37c0 1ecf 1240 c6a1 94be
000000a0: bb83 2a40 3d09 12bf 3188 94bf b446 c5bf
000000b0: 2be0 c93e c2ec 943d 473a a43f f298 7cbe
000000c0: ad3d 83bf 9cea 3340 0c26 813f 078b b8bf
000000d0: a090 39bd 30d2 c63f 74d6 15bf 2a0b 77bf
000000e0: 3389 81bf d40d 01bf 2d54 f93f a803 9dbd
000000f0: fb51 3340 50df a8bd 5362 ebbe 5094 6abf
